com/lc/pytorch/test/net_params.pkl (torch_old, 846 bytes, 3 tensors)

0.weight f4 [10, 1]
0	0x3f1c5b02	0.61076367
1	0x3e034770	0.1282022
2	0xbe0b8d2c	-0.13628072
3	0xbd9f0c4a	-0.07766016
4	0xbf663f1d	-0.89940053
5	0x3eb0f43c	0.34561336
6	0x3f922e30	1.1420345
7	0x3b137000	0.0022497177
8	0xbf2a590f	-0.6654214
9	0xbdbb2f94	-0.09139934

0.bias f4 [10]
0	0xbf669c40	-0.9008217
1	0xbf042074	-0.5161202
2	0xbf827854	-1.0192971
3	0xbe9d6b85	-0.30746093
4	0xbe5de34e	-0.21668741
5	0xbf30dfab	-0.6909129
6	0xbe6bd959	-0.2303213
7	0xbfb32cfe	-1.3998106
8	0xbde21ad9	-0.11040277
9	0xbff281ee	-1.8945901

2.weight f4 [1, 10]
0	0xbe5d170c	-0.21590823
1	0xbe3b33a0	-0.18281412
2	0xbe47df9a	-0.19518891
3	0xbc894ef8	-0.016761288
4	0x3f4ddec4	0.8041804
5	0x3eef6164	0.4675399
6	0x3f7aeb26	0.9801506
7	0xbd5a7af0	-0.0533399
8	0x3f115777	0.56774086
9	0xbeb1004c	-0.3457054
