com/lc/pytorch/tutorial/morvanzhou/net_params.pkl (torch_old, 846 bytes, 3 tensors)

0.weight f4 [10, 1]
-0.2934276 0.75468326 0.2893809 0.7106031 -0.7403827 -0.19020112 1.1495651 0.28105024
-0.7041824 -0.55406266
00000000: 243c 96be ec32 413f bc29 943e 16ea 353f
00000010: b889 3dbf 15c4 42be f324 933f d1e5 8f3e
00000020: 4c45 34bf 0dd7 0dbf

0.bias f4 [10]
-0.14537896 -0.29027748 -0.21420828 -0.7248726 -0.12228554 -0.43209264 -0.23978044 -0.7615035
-0.12292967 -0.21706209
00000000: 39de 14be 409f 94be 6a59 5bbe 4091 39bf
00000010: d770 fabd 3f3b ddbe 0189 75be e5f1 42bf
00000020: 8dc2 fbbd 8645 5ebe

2.weight f4 [1, 10]
0.11600431 0.4773839 0.032647494 0.2615849 0.6572841 -0.06506938 0.7222309 0.0060912967
0.572588 0.388407
00000000: ab93 ed3d aa6b f43e 61b9 053d 75ee 853e
00000010: c543 283f 1843 85bd 20e4 383f 8099 c73b
00000020: 2195 123f 48dd c63e
